models/mlp.pth (torch, 439776 bytes, 6 tensors)

fc1.weight f4 [128, 784]
0	0xbcfbc19f	-0.030731974
1	0x3b9d6165	0.00480287
2	0xbd039142	-0.03212095
3	0x3c31a259	0.010841929
4	0x3cdbf881	0.026851894
5	0x3b2108ca	0.002457189
6	0xbcc126ce	-0.023578074
7	0x3c9b7f07	0.01898147
8	0xbd100f2b	-0.035170715
9	0xbc7039b6	-0.014662197
10	0xbc26917e	-0.010166524
11	0xbc98ee93	-0.018668449
12	0xbcb88c23	-0.02252776
13	0x3cf9af45	0.030479083
14	0xbce67cad	-0.028135622
15	0xbcfa314d	-0.030541087
16	0x3cc9b62a	0.024622995
17	0x3d0049cf	0.03132039
18	0xbc84398e	-0.016140725
19	0x3c346535	0.011010458
20	0xbd0f3c9c	-0.03496991
21	0x3cc1b8ad	0.02364763
22	0x3b982e0a	0.00464416
23	0x3d062c6d	0.03275721
24	0xbc919236	-0.017769914
25	0xbc8e9695	-0.017405787
26	0x3cce333b	0.025170913
27	0x3c646d0d	0.013942015
28	0xbbf27b1a	-0.0073999288
29	0xbc82379b	-0.015895655
30	0x3ce33728	0.027736261
31	0xbd1b4eb4	-0.037916854
32	0xbb60e6fe	-0.003431737
33	0xbc5fbde1	-0.0136561105
34	0xbcb155b9	-0.021647321
35	0x3ad345f6	0.0016118872
36	0x3c09568f	0.008382454
37	0x3c8ecae4	0.01743073
38	0x3c0ee23c	0.008720931
39	0x3c80a688	0.015704408
40	0xbcaa76e9	-0.020808654
41	0xbb97e18c	-0.0046350416
42	0x3d3580af	0.044312175
43	0x3c95815a	0.018250156
44	0x3d308f7d	0.04310559
45	0x3ce5161e	0.027964648
46	0xbcff3eab	-0.031157812
47	0x3b617779	0.0034403487
48	0x3cc3795a	0.023861576
49	0xbca79b9c	-0.020459943
50	0x3b88fdee	0.0041806614
51	0x3c82c4a8	0.015962914
52	0x3c17d6c6	0.009267515
53	0xbc826623	-0.015917843
54	0xbbd0deb1	-0.006374203
55	0x3bb094ed	0.005388847
56	0xbc6ccd95	-0.014453311
57	0xbc7dec29	-0.0154981995
58	0x3c5788aa	0.013155142
59	0xbce72ac9	-0.028218644
60	0xbcc1da14	-0.023663558
61	0x3c8f86eb	0.017520389
62	0xbd0a6388	-0.033786327
63	0xbbec5c95	-0.007213185
64	0x3d2ca0cc	0.042145535
65	0x3ad3ba98	0.0016153632
66	0xbd36dcf0	-0.044644296
67	0x3d0ca149	0.0343335
68	0x3c0181c9	0.007904478
69	0x3d014eb2	0.03156919
70	0x3b089cd4	0.002084543
71	0x3c7ebb58	0.015547596
72	0xbb85b4cd	-0.004080391
73	0x3b8d46e2	0.0043114284
74	0xbcd3aa42	-0.025838021
75	0x3c022e70	0.007945642
76	0xbb51e429	-0.0032026863
77	0xbc2f2d3e	-0.010691939
78	0xbd0fdda4	-0.035123482
79	0xbbacbc34	-0.005271459
80	0xbac016ec	-0.0014655269
81	0xbca92d29	-0.020651417
82	0x3c93c7e1	0.018039646
83	0xbc90f500	-0.01769495
84	0x3c9f02d6	0.019410532
85	0xbcb1189e	-0.021618184
86	0x3b9e70d1	0.004835226
87	0xbc34f6fa	-0.011045212
88	0xbcbd4b11	-0.023107084
89	0x3b05786f	0.0020365973
90	0xbc8e605f	-0.017379938
91	0x3b253268	0.0025207046
92	0xbc9f6a68	-0.019459918
93	0xbcc015e2	-0.023447935
94	0xbda502f2	-0.080572024
95	0xbc82429f	-0.015900908
96	0xbd2a91d8	-0.041642994
97	0x3a7031a8	0.0009162673
98	0xbd6c2a37	-0.057657447
99	0xbd4ab361	-0.049487475
100	0xbdbc2b4b	-0.09187945
101	0xbd342f88	-0.04399064
102	0x3d8735f0	0.06602085
103	0xbb15adf3	-0.0022839278
104	0xbd2b5aa0	-0.041834474
105	0xbd37452b	-0.044743698
106	0xbdb0f8f2	-0.086412326
107	0xbd2d5dd2	-0.042325802
108	0xbc805130	-0.015663713
109	0x3d0bd1ba	0.034135558
110	0xbc60acf1	-0.013713107
111	0x3bcd1b7b	0.0062593794
112	0xb96f2858	-0.00022807845
113	0x3cc41ed1	0.023940476
114	0xbc9ed65c	-0.019389324
115	0xbd0c769f	-0.034292813
116	0xbb66ab54	-0.0035197334
117	0x3d6f0c90	0.05836159
118	0x3ca53d96	0.020170968
119	0xbd4b63e3	-0.049655806
120	0xbd5822f7	-0.05276772
121	0xbd8e08c0	-0.06935263
122	0xbd229c28	-0.039699703
123	0x3dc0b34e	0.094092
124	0x3dde7443	0.10862019
125	0x3e0f8164	0.14014202
126	0x3dfa95e2	0.12235619
127	0x3d268da7	0.040662434
128	0x3c0ffe31	0.008788631
129	0xbd613e76	-0.054991208
130	0xbd300672	-0.042974897
131	0xbda3da25	-0.08000592
132	0xbdb13cb2	-0.08654155
133	0xbdbba1c3	-0.09161713
134	0xbdbdd97d	-0.09269998
135	0xbd7e8662	-0.062139876
136	0x3c7e2620	0.015512019
137	0x3ca1b715	0.01974062
138	0x3d0f802f	0.035034355
139	0xbd02f8af	-0.031975444
140	0xbc08e1ba	-0.008354599
141	0x3ce8b67b	0.028407326
142	0x3c0f7f91	0.008758442
143	0x3cd9d82d	0.026592338
144	0x3b96ee5f	0.004606053
145	0x3d341a4b	0.043970387
146	0x3a5f1bf9	0.0008510943
147	0x3bd39a5e	0.006457611
148	0xbda409ed	-0.08009706
149	0xbda8a73f	-0.08235025
150	0xbdfd3750	-0.12364066
151	0xbe0c40eb	-0.13696639
152	0xbd0628a2	-0.032753594
153	0x3d0b05d2	0.033941098
154	0x3daa4a11	0.08314908
155	0x3deec469	0.11658556
156	0x3e01112f	0.12604211
157	0x3d3942de	0.045229785
158	0xbd9aaae1	-0.07552124
159	0xbe2bd2c0	-0.16779613
160	0xbe251b1c	-0.16123623
161	0xbde64051	-0.11242736
162	0xbdcff48b	-0.10154065
163	0xbd0ca7d2	-0.034339733
164	0xbbcc1862	-0.0062284926
165	0x3a20521c	0.0006115751
166	0xbca236bc	-0.01980149
167	0xbc6c6546	-0.014428442
168	0x3aadc0c0	0.0013256297
169	0x3c171c02	0.009222986
170	0xbc21234d	-0.0098350765
171	0x3b9a9526	0.004717487
172	0x3dc22f4b	0.09481677
173	0x3d8ce1fd	0.06879041
174	0x3d9b8fe8	0.07595807
175	0xbad853b3	-0.0016504436
176	0xbc1683d9	-0.009186708
177	0xbceee4db	-0.029161861
178	0xbc8a9713	-0.01691774
179	0xbca5245a	-0.020158935
180	0xbc8b4b40	-0.017003655
181	0xbd1a4a27	-0.037668373
182	0x3d196bff	0.03745651
183	0x3d120fca	0.03565959
184	0x3e004c0a	0.12529007
185	0x3d8764f0	0.06611049
186	0xbd0ef9c9	-0.034906182
187	0xbe3078b0	-0.17233539
188	0xbda0837f	-0.07837581
189	0xbe0ae317	-0.1356319
190	0xbdf91041	-0.12161303
191	0xbd501363	-0.05079974
192	0xbcc4a586	-0.024004709
193	0x3c5ea2e0	0.013588637
194	0x3b972332	0.00461235
195	0xbbde08f7	-0.006775971
196	0xbcc035ef	-0.023463218
197	0x3b12e9d4	0.0022417204
198	0xbca9885b	-0.020694902
199	0x3cb92c82	0.02260423
200	0x3d6f0ff3	0.05836482
201	0x3dcad0b5	0.09903089
202	0x3dddb398	0.108252704
203	0x3da253d7	0.079261474
204	0xbc0e785f	-0.008695691
205	0x3d33668c	0.04379897
206	0x3e0c8b76	0.13725075
207	0x3d9f1084	0.07766822
208	0x3ca0ecda	0.01964419
209	0x3dc615f3	0.09672155
210	0x3e19d636	0.15023121
211	0x3e50b9c3	0.20383362
212	0x3d852c2f	0.06502568
213	0x3d2f5928	0.042809635
214	0x3b79539b	0.0038044218
215	0xbd04f746	-0.03246238
216	0xbd967587	-0.07346635
217	0x3d165f30	0.03671187
218	0x3d232379	0.03982875
219	0x3d444740	0.04791951
220	0xbd32d796	-0.04366263
221	0x3ba67974	0.0050803963
222	0x3d1ae642	0.037817247
223	0x3c85b6bc	0.016322486
224	0xbd039f35	-0.032134254
225	0xbc1854ee	-0.009297593
226	0x3ca075bc	0.01958739
227	0x3db405e1	0.08790184
228	0x3d8c2e37	0.06844752
229	0x3e3604ab	0.17775218
230	0x3e0f95b3	0.1402195
231	0x3cdabfbe	0.026702758
232	0x3db026c2	0.086011425
233	0x3dea2e4e	0.11434613
234	0x3d4fb21c	0.050706968
235	0x3d5be7e0	0.05368793
236	0x3dbb699f	0.09151005
237	0x3d50c19d	0.050965894
238	0x3d974c67	0.073876195
239	0x3e52879f	0.20559548
240	0x3e02ef55	0.1278661
241	0x3d92a871	0.07161034
242	0x3d94c003	0.07263186
243	0x3d9baf88	0.07601839
244	0x3dc41b1b	0.095754825
245	0x3e0d7020	0.13812304
246	0x3ddc8f91	0.107695706
247	0x3d6f8e7c	0.058485493
248	0x3da6fe8e	0.08154021
249	0xbc20f0e4	-0.009823058
250	0xbb042a28	-0.0020166729
251	0x3ce7f5e0	0.028315485
252	0xba20f4c4	-0.00061399885
253	0x3c09ed6d	0.008418423
254	0x3cbf7017	0.023368878
255	0x3e0c46fb	0.13698952

fc1.bias f4 [128]
0	0xbc9c8ae5	-0.019109199
1	0x3cd92dd0	0.026511103
2	0x3d1357dc	0.03597246
3	0xbca9aa68	-0.020711139
4	0x3a07f06f	0.00051856687
5	0xbd83ba2d	-0.064319946
6	0xbd258b21	-0.040415887
7	0x3bda4809	0.0066614193
8	0xbd623a8a	-0.05523161
9	0xbc9a91f1	-0.018868418
10	0x3ce9aa43	0.02852357
11	0xbc96af7d	-0.018394226
12	0x3c4eb432	0.012616204
13	0xbd421c78	-0.04739043
14	0x3aa6f6d7	0.0012738359
15	0xbb19b402	-0.002345324
16	0xbb8edec3	-0.0043600514
17	0xbcefe9a7	-0.029286219
18	0xbbce8ea9	-0.0063036275
19	0x3d38017d	0.044923294
20	0xbc0c0bb9	-0.008547717
21	0xbda65eac	-0.08123526
22	0xbc821e2f	-0.015883533
23	0xbc58406c	-0.013198953
24	0x3c8cb20b	0.017174741
25	0x3d12a2d7	0.035799827
26	0xbcd25213	-0.025673902
27	0xbc8b3a4c	-0.016995572
28	0xbce3c088	-0.027801767
29	0xbd2057aa	-0.039146103
30	0xbcddb1b5	-0.027062276
31	0x3bf8d1f0	0.007593386
32	0xbcd36103	-0.025803095
33	0xbbab99ce	-0.005236841
34	0xbcaaedee	-0.020865407
35	0xbd129676	-0.035788022
36	0xbcd9e4a9	-0.026598291
37	0xbc95a29e	-0.018266018
38	0x3c183143	0.009289089
39	0xbcc7b735	-0.024379352
40	0x3ce97bd7	0.028501434
41	0x3c999755	0.018748919
42	0xbc895d1c	-0.01676803
43	0xbb50640a	-0.003179791
44	0x3ba43094	0.005010674
45	0x3d6066d3	0.05478556
46	0xbd92c057	-0.07165592
47	0xbd1c0e80	-0.038099766
48	0x3c1e7307	0.009670979
49	0xb9ff919d	-0.0004874588
50	0x3c8c6977	0.017140133
51	0xbd3d1976	-0.04616686
52	0xbd902bcc	-0.070396036
53	0xbd2b8f46	-0.041884683
54	0x3bafeb88	0.0053686537
55	0xbd0102ea	-0.03149692
56	0xbd991e68	-0.07476503
57	0x3c7542f2	0.014969574
58	0x3ac05d3d	0.0014676225
59	0x3d196476	0.037449323
60	0xbd0934f2	-0.03349776
61	0x3c652694	0.0139862485
62	0x3b63cb7b	0.0034758735
63	0xbd2c75bc	-0.042104468
64	0xbc643b1c	-0.013930108
65	0x3d8e9b4f	0.069632165
66	0xbc27a62b	-0.010232489
67	0xbd40902f	-0.047012504
68	0xbba268ff	-0.004956364
69	0xbc8111eb	-0.015755614
70	0xbcfce5a1	-0.030871214
71	0xba994c36	-0.0011695686
72	0xbcb44622	-0.022006098
73	0x3c0ed97c	0.0087188445
74	0xbda82587	-0.08210283
75	0xbd87d911	-0.06633199
76	0xbda1a9de	-0.07893728
77	0xbb65fe35	-0.0035094146
78	0xbcf98688	-0.030459657
79	0x3d73b04a	0.059494294
80	0xbd683467	-0.0566906
81	0xbc89cab4	-0.01682029
82	0xbcb605f4	-0.022219636
83	0xbc94b3fe	-0.018152233
84	0x3cce72de	0.025201257
85	0xbd0e2588	-0.03470376
86	0xbc34abf1	-0.011027322
87	0xbd1378ad	-0.036003757
88	0xbe02185f	-0.1270461
89	0xbdc0a78d	-0.09406958
90	0xbd1397c5	-0.03603341
91	0xbc4beb03	-0.012446168
92	0xbd19d737	-0.03755876
93	0xbd6b7977	-0.057488885
94	0xbd6667e4	-0.05625142
95	0x3da74bc7	0.0816875
96	0xbceb9571	-0.028757783
97	0xbafe9254	-0.0019422271
98	0x3cd6a844	0.026203282
99	0xbda89022	-0.08230616
100	0xbcfadd9a	-0.030623246
101	0xbcbe4d48	-0.02323021
102	0xbdae59a9	-0.08513195
103	0xbdbcf791	-0.09226907
104	0x3c86af94	0.016441144
105	0xbd143a69	-0.036188517
106	0x3cba639b	0.022752574
107	0xbd2f7f5c	-0.04284607
108	0xbd0e7914	-0.034783438
109	0xbcbc81cc	-0.02301111
110	0xbca600da	-0.020264078
111	0x3c81e43f	0.015855907
112	0xbcae56c4	-0.021281607
113	0x3c4d37ef	0.012525543
114	0xbd36c390	-0.044620097
115	0xbdb5fc74	-0.08886042
116	0x3c720e24	0.014773879
117	0x3b7f71c8	0.003897773
118	0xbce98fa6	-0.02851088
119	0xbc28dc01	-0.010306359
120	0xbd3c7a58	-0.046015114
121	0xbcf2e78f	-0.029651431
122	0xbc6b41df	-0.014358967
123	0x3d7f23bf	0.06228995
124	0xbc320957	-0.010866485
125	0xbd1abbaa	-0.037776627
126	0xbd177a2c	-0.036981747
127	0xbcd22dd8	-0.025656626

fc2.weight f4 [64, 128]
0	0xbdea3fa9	-0.114379235
1	0x3bdbd96f	0.0067092697
2	0xbe47b9e6	-0.19504508
3	0xbe8f3f8c	-0.2797817
4	0x3e4b099f	0.19827889
5	0x3ddbdd94	0.10735622
6	0xbe642b8b	-0.22282235
7	0x3d3e4720	0.04645455
8	0xbc8fd354	-0.017556824
9	0x3d15abb9	0.03654072
10	0x3d303b83	0.043025505
11	0x3cea47bd	0.02859866
12	0xbd949bc8	-0.072562754
13	0x3e54c247	0.20777236
14	0x3e6542cc	0.22388762
15	0x3b358bf8	0.0027701836
16	0x3da75628	0.0817073
17	0x3bbe664d	0.005810535
18	0xbd947eff	-0.07250785
19	0xbda8de78	-0.082455575
20	0xbe2dd671	-0.16976334
21	0xbd89be16	-0.06725709
22	0x3e1a2fb6	0.15057263
23	0x3e4e3bc5	0.20139988
24	0xbe3a02c9	-0.18165125
25	0x3c4cd31b	0.012501503
26	0xbd85a33b	-0.06525274
27	0x3c2f6c3b	0.0107069565
28	0xbc5add06	-0.01335836
29	0xbcb107bf	-0.021610139
30	0xbe82d951	-0.25556424
31	0xbd276a22	-0.0408727
32	0xbd0fb09e	-0.035080545
33	0x3c7eb8d3	0.015546995
34	0x3c0a432e	0.008438868
35	0xbe09e35f	-0.13465641
36	0x3d542566	0.05179348
37	0xbb70cae8	-0.0036742035
38	0xbdf1dec0	-0.11810064
39	0x3e0f8258	0.14014566
40	0x3b37d2bf	0.0028049198
41	0x3d28adf0	0.041181505
42	0x3d59f4b1	0.05321187
43	0x3d81e30c	0.06342134
44	0xbcd1cbb9	-0.025609838
45	0xbe00db92	-0.1258376
46	0x3de66165	0.11249045
47	0x3d9ec0b7	0.07751601
48	0x3e58e84f	0.21182369
49	0xbbc9c9d6	-0.006158094
50	0xbd34b6a7	-0.044119503
51	0xbe08b6aa	-0.13350931
52	0xbd5ab405	-0.053394336
53	0x3cbcc2ac	0.023042046
54	0xbd963d3f	-0.073359005
55	0x3c6975f2	0.014249312
56	0x3e11cb5c	0.14237732
57	0xbcf82e1d	-0.030295426
58	0xbde967ad	-0.11396728
59	0xbddda082	-0.1082163
60	0xbdea6728	-0.11445457
61	0xbe47dfed	-0.19519015
62	0xbda0eed8	-0.07858056
63	0xbea39fff	-0.31958005
64	0x3ba568bb	0.0050478852
65	0xbd1792d5	-0.037005264
66	0xbd5426d4	-0.051794842
67	0x3e5cdad5	0.21567853
68	0x3e15f7de	0.14645335
69	0x3e108f55	0.14117177
70	0x3e067176	0.1312922
71	0xbd6c99e5	-0.057763953
72	0xbdb740e7	-0.08947926
73	0x3c88c387	0.016694797
74	0x3d6b38b0	0.05742711
75	0x3e2b33c2	0.16718963
76	0x3e835640	0.2565174
77	0xbd972ed6	-0.0738198
78	0xbe42e1f0	-0.19031501
79	0xbe98bfce	-0.29833835
80	0xbdb97178	-0.090548456
81	0x3e8a6f2e	0.27037948
82	0xbd57e9c1	-0.05271316
83	0xbe2d4bac	-0.16923398
84	0x3e164be5	0.14677389
85	0xbddb9375	-0.107214846
86	0xbcc7d1e5	-0.024392078
87	0x3cc08b65	0.023503968
88	0x3e8f664f	0.28007743
89	0x3c92c9e2	0.01791853
90	0xbd3b1941	-0.04567838
91	0x3da1154e	0.07865392
92	0xbda3f9ed	-0.08006654
93	0x3d014734	0.031562045
94	0x3ee099c8	0.43867326
95	0x3becbe54	0.0072248373
96	0x3d1be8b9	0.03806374
97	0xbdd0c862	-0.1019447
98	0x3d91e812	0.07124342
99	0x3d177a0e	0.036981635
100	0xbdf94aa7	-0.12172442
101	0x3e9c7327	0.30556604
102	0xbd2a42cd	-0.041567612
103	0xbd3c9213	-0.046037745
104	0x3d4f1e46	0.05056598
105	0x3da20e8b	0.0791293
106	0xbd86ba9a	-0.0657856
107	0x3d08ea49	0.033426557
108	0x3bde540a	0.0067849206
109	0x3ca1cbf5	0.019750575
110	0xbdb6a94c	-0.089190096
111	0xbb5dff4f	-0.00338741
112	0xbe887b87	-0.26656744
113	0x3d9577f6	0.07298271
114	0x3b9b951a	0.004747999
115	0x3d7d51d7	0.061845627
116	0xbad2d303	-0.0016084615
117	0xbdc877da	-0.09788485
118	0x3cc63a07	0.024197591
119	0xbdfa22cc	-0.12213668
120	0xbe848222	-0.25880533
121	0xbdc4cebb	-0.09609743
122	0x3e726fff	0.23675536
123	0x3d460d6c	0.048352644
124	0x3d4db07f	0.050217148
125	0x3d89aedb	0.06722804
126	0xbd8b1a7c	-0.06792161
127	0xbe11ec26	-0.1425024
128	0x3e1ea008	0.15490735
129	0xbc131ba5	-0.008978759
130	0x3a982812	0.0011608622
131	0x3e830cc7	0.25595686
132	0x3e0993d9	0.13435306
133	0xbd0e22c0	-0.03470111
134	0xbcf59172	-0.02997658
135	0x3d8ef936	0.06981127
136	0xbd9a2788	-0.07527071
137	0xbd12424a	-0.03570775
138	0xbd221fa9	-0.039580975
139	0x3d77c9a0	0.06049502
140	0x3d6371ba	0.05552838
141	0x3e089794	0.13339072
142	0x3e32c4f7	0.17457949
143	0xbe9e6ebb	-0.30943856
144	0xbc624a3e	-0.013811646
145	0xbd513811	-0.05107886
146	0xbbb64b37	-0.0055631655
147	0x3dddafe9	0.10824568
148	0xbc94b2bc	-0.018151633
149	0x3e02f47e	0.12788579
150	0x3ca68f33	0.020331955
151	0xbe1199b4	-0.1421879
152	0x3dc1bb3e	0.09459542
153	0xbcb9fd68	-0.022703841
154	0x3dd09069	0.10183794
155	0x3e4137b2	0.18868902
156	0xbcf0a8e7	-0.029377414
157	0xbca90bcd	-0.02063551
158	0x3da16423	0.07880428
159	0x3d9d65cb	0.07685431
160	0xbd0d3399	-0.034473035
161	0x3d2de3b1	0.04245347
162	0xbe6ee34f	-0.23328899
163	0xbe323655	-0.17403539
164	0x3a7f2107	0.00097323995
165	0xbca6211d	-0.020279462
166	0x3d154ec0	0.036452055
167	0x3dd728ec	0.10505852
168	0x3d65a22c	0.056062862
169	0x3daa024f	0.083012216
170	0xbbddee20	-0.0067727715
171	0x3d19267e	0.037390225
172	0xbd8ff677	-0.07029431
173	0xbe4e7cd0	-0.201648
174	0x3c971232	0.018441293
175	0xbd15f05b	-0.036606174
176	0xbd7857ce	-0.060630612
177	0xbb49b2f4	-0.003077683
178	0x3d9061cf	0.070499055
179	0x3e199290	0.14997315
180	0xbdde6cf4	-0.10860625
181	0x3d44723a	0.047960497
182	0x3d797278	0.06090018
183	0x3d3dfbbe	0.04638266
184	0xbe55b9bf	-0.20871638
185	0x3d20fba8	0.039302498
186	0x3bb988b7	0.0056620496
187	0x3ea4675f	0.32110116
188	0xbcf7028d	-0.030152583
189	0x3d0405bf	0.032232042
190	0xbbea8949	-0.007157479
191	0x3e8a8e21	0.2706156
192	0xbb852037	-0.004062678
193	0xbd8f2695	-0.06989781
194	0x3d196752	0.03745205
195	0x3e49fd97	0.19725643
196	0x3d1ca232	0.03824062
197	0x3e7659ea	0.24057737
198	0xbdc3c68f	-0.095593564
199	0xbdb172a8	-0.08664447
200	0x3b5cc04a	0.003368395
201	0x3dbb7ea2	0.09155013
202	0x3d652aee	0.055949144
203	0x3bc7a169	0.0060922396
204	0x3ba329eb	0.0049793622
205	0x3d829188	0.06375414
206	0xbc9dedff	-0.019278524
207	0x3e1e3894	0.1545127
208	0xbdf39bd0	-0.11894953
209	0x3c2bd3b4	0.010487486
210	0x3d879570	0.066203
211	0xbc0bec84	-0.008540276
212	0xbda345e8	-0.07972318
213	0x3dd74907	0.10511976
214	0xbbbe19d3	-0.0058014183
215	0xbc7d4e68	-0.015460588
216	0x3b20fc89	0.0024564585
217	0xbdc5b4ea	-0.09653647
218	0xbcaf3016	-0.021385234
219	0x3e9ae2a8	0.3025105
220	0xbccdb583	-0.025110966
221	0x3db39ff1	0.08770741
222	0xbdbbc11c	-0.09167692
223	0xbc8fc5ed	-0.017550433
224	0x3d18134a	0.03712777
225	0xbcedb23a	-0.02901565
226	0x3d8cb179	0.06869788
227	0xbdc2a514	-0.095041424
228	0x3d4f5d7e	0.05062627
229	0xbcf2d066	-0.029640388
230	0xbe721b9b	-0.23643343
231	0xb89cd6a6	-7.478641e-05
232	0xbd501c4d	-0.05080824
233	0xbbb6dfd2	-0.0055808807
234	0xbe3dc9b0	-0.18533969
235	0x3ce5e308	0.028062358
236	0xbcac9a7c	-0.021069758
237	0x3b994c9b	0.0046783215
238	0xbd856b8a	-0.06514652
239	0x3c7809f0	0.015139088
240	0xbda49627	-0.08036452
241	0x3d89ecff	0.067346565
242	0x3de0ed8e	0.1098281
243	0xbe56f2c4	-0.20991045
244	0xbc77c96a	-0.015123704
245	0xbcea46f6	-0.02859829
246	0x3d7dd008	0.061965972
247	0x3e4c560a	0.19954696
248	0x3d0d0715	0.034430582
249	0x3d86aed7	0.06576317
250	0xbda43fb8	-0.08019966
251	0xbd48aaba	-0.048990943
252	0xbe3352e6	-0.17512092
253	0x3ccc5558	0.024943039
254	0x3da694dc	0.081338614
255	0x3e00428d	0.12525387

fc2.bias f4 [64]
0	0xbe02c09c	-0.12768787
1	0xbd8800b9	-0.06640763
2	0xbdba0cc5	-0.09084467
3	0x3eaf3cfc	0.34226215
4	0x3d03cf3e	0.032180063
5	0xbe0479ca	-0.12937084
6	0xbdf2af1d	-0.118498065
7	0x3ceeea33	0.02916441
8	0x3bb6e598	0.005581569
9	0x3d20d391	0.039264265
10	0x3e84bfa7	0.2592747
11	0xbd0e9040	-0.034805536
12	0x3e8f5597	0.27994987
13	0xbdea8fd3	-0.114532135
14	0xbcf4bb63	-0.02987451
15	0x3de852ac	0.113438934
16	0xbda178d8	-0.07884377
17	0x3c549227	0.012974299
18	0xbd49aa13	-0.04923446
19	0x3da09a70	0.078419566
20	0xbd0e349a	-0.034718134
21	0xbe0ddb5a	-0.13853207
22	0x3ee8c651	0.45463803
23	0xbd800587	-0.06251054
24	0xbe437c00	-0.19090271
25	0x3e10a39b	0.1412491
26	0xbcf2fe71	-0.029662343
27	0xbd9cb7f9	-0.076522775
28	0xbda948e5	-0.08265857
29	0x3e15bcc0	0.14622784
30	0xbd5b14fa	-0.0534868
31	0xbe829542	-0.255045
32	0xbe146c09	-0.14494337
33	0x3e0d9c81	0.13829233
34	0xbda200eb	-0.07910331
35	0x3e3eb6dd	0.18624444
36	0x3c17b2b8	0.009258918
37	0x3ec3b42d	0.382234
38	0xbd9add42	-0.07561733
39	0xbdc6449c	-0.09681055
40	0xbdbe9ecf	-0.09307634
41	0xbe872f1c	-0.2640313
42	0xbdf28f48	-0.11843735
43	0xbe7e16c1	-0.24813367
44	0xbd3f6fc3	-0.046737444
45	0xbcc8b032	-0.024498079
46	0xbd486274	-0.048922017
47	0xbd8a5f4b	-0.06756457
48	0xbd3e9d89	-0.046536956
49	0x3e93c3b3	0.28860244
50	0x3e8483d4	0.25881827
51	0xbe703e71	-0.2346132
52	0xbdade9bc	-0.08491847
53	0xbd801141	-0.06253291
54	0x3d854559	0.06507368
55	0xbd428307	-0.04748824
56	0x3d2915e5	0.041280646
57	0xbe1bdd87	-0.15221225
58	0xbdca6bc7	-0.09883838
59	0x3d16ac02	0.036785133
60	0x3e1e4d61	0.15459205
61	0x3c09d810	0.00841333
62	0x3dacb8cc	0.08433685
63	0x3e5c17f7	0.21493517

fc3.weight f4 [10, 64]
0	0xbdb1d481	-0.0868311
1	0xbe22f0af	-0.15912126
2	0xbd3f1204	-0.04664804
3	0xbd7b5138	-0.061356753
4	0xbd2f24f2	-0.042759843
5	0x3e0d13fa	0.13777152
6	0xbe2d79dd	-0.16941018
7	0x3dc3c1ed	0.09558473
8	0x3e29b85f	0.16574238
9	0xbe1507aa	-0.14553705
10	0x3b7a259f	0.0038169397
11	0x3e24eadf	0.16105221
12	0x3d230896	0.03980311
13	0x3d4717d8	0.048606724
14	0x3c12defc	0.008964296
15	0x3dd33ca0	0.10314298
16	0xbba4feb2	-0.005035245
17	0xbdcab1ab	-0.09897169
18	0x3e12dbef	0.1434171
19	0xbd2c1068	-0.042007834
20	0xbf16f2ba	-0.5896412
21	0xbc8cf19e	-0.017205056
22	0x3c9d1277	0.019173844
23	0xbe3bf3e8	-0.18354762
24	0xbd98ebdc	-0.074668616
25	0x3e1c53c7	0.15266334
26	0x3eac1d81	0.3361626
27	0xbde0c1a4	-0.10974434
28	0xbea55539	-0.32291582
29	0x3d07eb3b	0.033183318
30	0x3d1507b8	0.036384314
31	0xbe395749	-0.18099703
32	0xbd35bfd3	-0.04437239
33	0xbd96c6fc	-0.07362172
34	0xbe88757f	-0.26652142
35	0x3e6b78c4	0.22995287
36	0xbdd1082f	-0.10206639
37	0x3e8e074e	0.27739948
38	0x3e803e9e	0.25047773
39	0x3c82dba8	0.01597388
40	0x3d8ff2bf	0.07028722
41	0xbec0290f	-0.37531325
42	0xbca6c58f	-0.020357875
43	0xbe64eb6f	-0.22355436
44	0xbd14dfcb	-0.036346238
45	0xbd2e16a4	-0.04250206
46	0xbe2123e5	-0.15736349
47	0xbe1e6c03	-0.1547089
48	0xbe3bd906	-0.18344507
49	0xbe81e6e3	-0.25371465
50	0xbd059a30	-0.032617748
51	0xbd752b7c	-0.059855923
52	0xbdfd5c38	-0.12371105
53	0xbdf4d65f	-0.119549505
54	0xbe4d5a3d	-0.20053954
55	0xbc1125b7	-0.00885909
56	0xbe9eb858	-0.31000018
57	0x3d852ef9	0.065031
58	0xbdea194e	-0.11430608
59	0x3c03e295	0.008049627
60	0x3e193ba5	0.14964159
61	0x3e6b22bb	0.22962467
62	0x3dde0bb6	0.108420774
63	0xbe92f164	-0.2869979
64	0x3dcdee7a	0.100552514
65	0x3db39919	0.087694354
66	0x3dd679ed	0.10472474
67	0xbe10c9be	-0.14139459
68	0xbb32e152	-0.0027294946
69	0x3d0f3021	0.03495801
70	0x3cf1fb56	0.029538792
71	0xbec02fe0	-0.37536526
72	0xbe3ee84b	-0.186433
73	0x3e078ffa	0.13238516
74	0xbe42fd48	-0.19041932
75	0x3e623603	0.22090916
76	0x3d71ae06	0.059003852
77	0xbdd9a305	-0.10626797
78	0xbe069378	-0.13142192
79	0xbd86bdc3	-0.06579163
80	0x3e131c1b	0.1436619
81	0x3d96c1ad	0.073611595
82	0x3ebc51b6	0.3678109
83	0x3cdc1de4	0.026869722
84	0xbeaebd41	-0.34128764
85	0xbc3fca9a	-0.011706019
86	0xbde41ebe	-0.11138676
87	0x3e5463d4	0.20741206
88	0xba45399c	-0.0007523538
89	0xbeb297ec	-0.34881532
90	0xbece73fe	-0.4032287
91	0x3da325f4	0.07966223
92	0xbd2a6301	-0.041598324
93	0x3e09a93d	0.13443466
94	0xbda86b9b	-0.08223649
95	0xbd835e96	-0.06414525
96	0xbd2e8abb	-0.042612772
97	0x3d354cea	0.044262804
98	0x3e918639	0.28422716
99	0xbc98ab78	-0.01863645
100	0x3b5e61e3	0.0033932857
101	0xbe3e65e9	-0.18593563
102	0xbe6e87f7	-0.23294054
103	0xbb7160f5	-0.0036831473
104	0xbc0b97fd	-0.008520124
105	0x3decfce1	0.1157167
106	0xbdbf6f74	-0.0934743
107	0x3e3dea18	0.18546331
108	0x3e3643cb	0.17799298
109	0x3d44ec0d	0.048076678
110	0x3e0c3c4b	0.13694875
111	0x3d98336e	0.074316844
112	0xbd8a2fc9	-0.067473955
113	0xbe676b6e	-0.22599575
114	0xbea4ed14	-0.32212126
115	0x3e7965f2	0.24355295
116	0xbe104cae	-0.14091751
117	0xbda1fc08	-0.07909399
118	0x3e0f0e78	0.13970363
119	0xbdac5c89	-0.08416087
120	0xbdc4150e	-0.09574328
121	0x3db419ae	0.087939605
122	0xbeabf79f	-0.33587357
123	0xbe6add5d	-0.22936006
124	0xbaaed412	-0.0013338348
125	0x3da4cc55	0.08046786
126	0x3cb5d332	0.022195432
127	0xbd8d74c6	-0.069070384
128	0x3d637734	0.055533603
129	0xbd147082	-0.03624011
130	0xbda18973	-0.078875445
131	0x3ce5bfae	0.028045502
132	0xbeb5d5fe	-0.35514826
133	0xbe531a18	-0.20615423
134	0xbd8c742a	-0.06858094
135	0x3d4c7b7c	0.04992245
136	0x3b8de8ff	0.004330754
137	0x3e79242d	0.24330206
138	0x3de81735	0.113325514
139	0xbdc6575f	-0.096846335
140	0xbe80d0bd	-0.25159255
141	0x3d2c1c2a	0.042019047
142	0x3dc43170	0.09579742
143	0x3c9d4828	0.019199446
144	0xbccc0f1d	-0.02490955
145	0xbd6087ab	-0.054816883
146	0xbd013852	-0.03154785
147	0xbe02154f	-0.12703441
148	0x3dc6614a	0.09686525
149	0xbdf14028	-0.11779815
150	0x3c91b55f	0.01778668
151	0x3dc42ccb	0.09578856
152	0x3e88a482	0.2668801
153	0xbe8f0cfa	-0.27939588
154	0xbd79ee0e	-0.061018042
155	0x3df63ed2	0.12023701
156	0x3e59e7ae	0.21279785
157	0xbd97c8d9	-0.074113555
158	0x3ddbe556	0.10737102
159	0x3d80a0d2	0.06280674
160	0xbe01613e	-0.12634751
161	0xbe73eff0	-0.23821998
162	0x3e407882	0.1879597
163	0x3de1a570	0.11017883
164	0xbddd65cd	-0.108104326
165	0x3d1608e8	0.036629587
166	0xbda64a41	-0.081196316
167	0x3d9d41d6	0.07678573
168	0xbc231251	-0.009953097
169	0xbe804f39	-0.25060442
170	0xbd6095c4	-0.054830328
171	0x3e48a95e	0.19595858
172	0xbe2ba9c7	-0.16763984
173	0x3e141887	0.14462481
174	0xbd5e6113	-0.054291796
175	0x3e761293	0.24030523
176	0xbe0908c4	-0.1338225
177	0xbe0cf6f2	-0.13766077
178	0x3d0e83e6	0.034793757
179	0x3debe797	0.11518782
180	0x3d16adcc	0.03678684
181	0x3c45600f	0.012046828
182	0x3d83eccd	0.064416505
183	0xbe5a1bde	-0.21299693
184	0x3cb6680a	0.022266407
185	0x3cb824f5	0.02247856
186	0xbdb0ee6b	-0.086392246
187	0x3d54c930	0.05194968
188	0xbd7fe968	-0.062478453
189	0x3e0ee0a9	0.13952889
190	0x3e008edb	0.12554495
191	0xbe648ec9	-0.22320093
192	0x3e149c5c	0.14512771
193	0x3dd66712	0.10468878
194	0xbe700130	-0.23437953
195	0x3d6b5c25	0.057460923
196	0xbe776caf	-0.24162553
197	0xbeed46ba	-0.46343023
198	0xbd99f816	-0.07518022
199	0x3dce33f3	0.10068502
200	0xbdf7cdd7	-0.12099808
201	0x3e28e738	0.16494453
202	0x3df0f491	0.11765397
203	0xbd06eac7	-0.032938745
204	0xbd716e12	-0.05894286
205	0xbddfef48	-0.10934311
206	0x3be06f0e	0.0068491763
207	0x3d0cb8e8	0.034356028
208	0x3de29129	0.11062843
209	0xbdc9b9e2	-0.098499075
210	0xbeb96bb9	-0.36214998
211	0x3dc78fc9	0.09744222
212	0xbd500d18	-0.050793737
213	0xbd83c736	-0.06434481
214	0xbcbf98ad	-0.023388231
215	0xbd303a30	-0.043024242
216	0x3d799491	0.0609327
217	0x3e244401	0.16041566
218	0xbee426d5	-0.44560876
219	0x3cd1182e	0.025524225
220	0x3d8ea307	0.06964689
221	0xbe12c272	-0.14331988
222	0x3e1dc8d5	0.15408643
223	0xbd1423b1	-0.03616685
224	0x3dda7baa	0.10668118
225	0x3d63fc5c	0.05566059
226	0xbe038a7e	-0.128458
227	0xbe841720	-0.25798893
228	0xbe51d045	-0.20489605
229	0x3d7c043d	0.06152748
230	0x3d737b72	0.0594439
231	0xbd83e528	-0.064401925
232	0x3d12f3d3	0.03587706
233	0x3cdc2bfb	0.02687644
234	0xbceefb76	-0.02917264
235	0xbeb3ffef	-0.351562
236	0x3e67fa64	0.2265411
237	0xbe36f821	-0.17868091
238	0xbc1cc925	-0.009569441
239	0x3d93503d	0.071930386
240	0x3d9bfd49	0.0761667
241	0x3df1829a	0.117924884
242	0xbd71ab04	-0.059000984
243	0x3e03b4f6	0.12862
244	0xbd3e5107	-0.046463992
245	0x3e9d68b7	0.30743954
246	0xbd6cfb9d	-0.057857145
247	0xbe78f76a	-0.24313131
248	0x3e99e894	0.30060256
249	0xbd9043ba	-0.07044168
250	0x3d44ed98	0.04807815
251	0xbc6b4830	-0.014360473
252	0xbac806df	-0.0015260837
253	0xbb4197ad	-0.0029539869
254	0xbe5ddf3d	-0.2166719
255	0xbe19feb4	-0.15038568

fc3.bias f4 [10]
0	0xbe1c82a0	-0.15284204
1	0xbe80b886	-0.2514078
2	0xbe2471b7	-0.16059004
3	0xbdf08b3d	-0.117453076
4	0xbcdaf074	-0.026725985
5	0xbc8b8372	-0.017030451
6	0xbbdc2a3f	-0.0067189033
7	0xbe5a0780	-0.21291924
8	0x3ed75f10	0.42064714
9	0x3d24f228	0.04027
